None
_________________________________________________________________
Layer (type)                 Output Shape              Param #   
=================================================================
conv2d_858 (Conv2D)          (None, 28, 28, 8)         80        
_________________________________________________________________
batch_normalization_501 (Bat (None, 28, 28, 8)         32        
_________________________________________________________________
activation_887 (Activation)  (None, 28, 28, 8)         0         
_________________________________________________________________
dropout_887 (Dropout)        (None, 28, 28, 8)         0         
_________________________________________________________________
conv2d_859 (Conv2D)          (None, 28, 28, 64)        4672      
_________________________________________________________________
batch_normalization_502 (Bat (None, 28, 28, 64)        256       
_________________________________________________________________
activation_888 (Activation)  (None, 28, 28, 64)        0         
_________________________________________________________________
dropout_888 (Dropout)        (None, 28, 28, 64)        0         
_________________________________________________________________
conv2d_860 (Conv2D)          (None, 28, 28, 64)        36928     
_________________________________________________________________
batch_normalization_503 (Bat (None, 28, 28, 64)        256       
_________________________________________________________________
activation_889 (Activation)  (None, 28, 28, 64)        0         
_________________________________________________________________
dropout_889 (Dropout)        (None, 28, 28, 64)        0         
_________________________________________________________________
max_pooling2d_362 (MaxPoolin (None, 14, 14, 64)        0         
_________________________________________________________________
conv2d_861 (Conv2D)          (None, 14, 14, 64)        36928     
_________________________________________________________________
activation_890 (Activation)  (None, 14, 14, 64)        0         
_________________________________________________________________
dropout_890 (Dropout)        (None, 14, 14, 64)        0         
